software/deprecated/model.tflite (tflite, 26744 bytes, 8 tensors)

arith.constant f4 [18, 16]
000000 25 7f 64 3e 2c 90 1a 3e a7 ee e4 3e 3b 31 d9 3e
       0.22314127 0.1509406 0.44713327 0.42420372
000010 60 97 2f 3f cd 84 10 3f ab e5 d7 be 5d e2 61 3d
       0.68590355 0.5645264 -0.4216741 0.055147517
000020 90 6d 15 bf d7 d7 16 bf b3 5a 27 3e 3d 6c e5 3e
       -0.58370304 -0.58923095 0.16343193 0.44809142
000030 a1 9b f4 be 96 27 31 3e 69 15 a0 3f f1 fd 64 bf
       -0.47774985 0.17300257 1.2506534 -0.89449984
000040 aa ec 1f 3f d0 c0 e9 be 36 c7 34 3e de 1b 8d 3e
       0.62470496 -0.45654917 0.17654118 0.27560323
000050 62 f2 4e 3f 79 13 0e 3e 19 9e 48 bf 72 4c 00 3e
       0.80838597 0.13874616 -0.7836624 0.12529162
000060 9e af c7 bd a1 35 04 be c6 8e 54 bf d7 19 83 3e
       -0.09750293 -0.12911083 -0.83030355 0.25605652
000070 fe ae a8 be 33 d5 89 bf e0 19 3f 3f 4a 49 19 3e
       -0.32946008 -1.0768188 0.7464886 0.14969364
000080 74 26 a7 be d8 bf f5 be e8 86 a2 bd 4f 07 7e bd
       -0.32646525 -0.47997928 -0.079358876 -0.06201869
000090 52 66 2f 3e 59 ac b6 3d eb ef 78 bf db d9 d7 be
       0.17128876 0.089195915 -0.97241086 -0.42158398
0000a0 13 47 d4 3c 7d 5b 19 bf 5e 63 df be 68 30 21 3f
       0.025912797 -0.59905225 -0.436305 0.6296449
0000b0 67 a9 01 3f 51 00 7b be 64 c1 2f 3e 50 03 ae bd
       0.5064911 -0.2451184 0.17163616 -0.084967256
0000c0 f0 92 c4 bd 0a 6e 0c bf e9 ab dc be 9e 8b 06 be
       -0.095983386 -0.54855406 -0.43099907 -0.13139197
0000d0 07 42 11 3f 39 d9 06 be 79 2d 73 bf 9d c4 12 3e
       0.56741375 -0.13168801 -0.9499126 0.14332815
0000e0 af 5e 2b bd 7b 0d df be c3 30 b0 3e 7c 3f e5 3d
       -0.041838344 -0.43564972 0.34412202 0.11193749
0000f0 5f 31 31 3f 40 38 84 be 41 2b 18 3e 4d 10 86 3e
       0.6921596 -0.25824165 0.1486025 0.26184312
000100 6f ae 94 3e 83 f3 c2 3b 98 c1 c6 3e 6d eb 01 bf
       0.29039332 0.005949439 0.38819575 -0.50749856
000110 1c 99 66 be 99 ae 56 be d8 57 ad be b1 7e 2d 3e
       -0.22519344 -0.20965041 -0.33856082 0.1694286
000120 95 11 64 3e 7a 56 27 bf af 43 a9 be 98 88 28 3d
       0.22272332 -0.6536633 -0.3305945 0.04114589
000130 08 84 0e be cf 50 c8 3d 65 f8 b8 3d 2e 5f 1d 3e
       -0.13917553 0.09781038 0.090317525 0.1536834
000140 2b 0c a9 3e bc 71 d4 3d 1c 27 dd 3e 28 ea d4 3d
       0.33017096 0.103732556 0.431939 0.10396224
000150 ad c0 1d be 39 d1 1b bf 95 0d 7a be 69 02 fa bc
       -0.15405531 -0.60866123 -0.24419244 -0.030518727
000160 b1 3e 9d 3e 16 e8 ad be be eb 32 bf 88 1c fc be
       0.30711892 -0.3396613 -0.69890964 -0.49240518
000170 2a 73 84 be 1b a4 d0 3e 31 a1 97 be 06 a2 07 3e
       -0.25869113 0.40750203 -0.29615167 0.13245401
000180 a7 86 a6 be 0a 43 16 3d a8 3d 3e bf 25 bd c2 3e
       -0.32524607 0.036685027 -0.7431283 0.3803493
000190 51 96 2f bf 48 30 a4 3d 88 b4 bc be 4e 66 72 3d
       -0.6858874 0.080170214 -0.36856484 0.059179597
0001a0 36 5f 27 3f ce 65 24 bd 7f ce 81 be 43 93 b3 3e
       0.65379655 -0.04013615 -0.25352857 0.3507329
0001b0 b0 eb cc be 06 2e 40 bd 21 7d 2e bf 8c fc 7d 3e
       -0.40023565 -0.04691889 -0.6815968 0.2480337
0001c0 18 4e 9e bc 26 5e d3 3e 67 46 32 be 75 31 98 bb
       -0.019324347 0.41282767 -0.17409669 -0.0046445676
0001d0 89 05 10 bd 7c 68 5f 3e a9 75 82 bf d9 25 ce 3e
       -0.03516153 0.21817201 -1.0192157 0.4026325
0001e0 0c e4 3a bd 26 62 33 3f 19 c9 87 be 9e 55 10 3f
       -0.04562764 0.7007164 -0.26520613 0.5638064
0001f0 0f 12 54 3d ad 21 97 be 94 92 7e be f0 08 ac bc
       0.051775035 -0.2951788 -0.24860603 -0.021000355
000200 95 16 89 3e 53 1e 9c 3e b6 9d 82 3d 0f 06 c5 bd
       0.2677504 0.30491886 0.06377737 -0.09620296
000210 d5 0f 93 be 2c 32 65 be b1 29 24 3e c1 a1 7f 3e
       -0.28723016 -0.2238242 0.16031529 0.24964048
000220 d6 ce 55 3d 29 22 1d be 0e 9c a8 bd 86 50 84 be
       0.052199207 -0.15345062 -0.0823289 -0.25842685
000230 fc 8f 84 be 42 55 c4 be 55 e8 44 bf 3e db 80 3e
       -0.258911 -0.38346297 -0.7691701 0.2516727
000240 79 13 d1 3e fa ef 08 bf 5e b7 f1 3d 81 f9 cf be
       0.4083517 -0.53491175 0.11802553 -0.40620044
000250 ed 25 77 bf 42 fc d8 bd fd c4 fb bd 57 10 a7 be
       -0.96542245 -0.10594989 -0.12293432 -0.32629654
000260 86 19 04 bd 6d 57 12 3f 5b e1 f7 3d 33 62 11 bd
       -0.032250904 0.5716465 0.1210353 -0.03549404
000270 1c 01 90 3e 09 d0 d9 3e 4f 2a 52 bf 17 47 3e bf
       0.28125846 0.4254153 -0.8209581 -0.74327224
000280 29 7c 5e be 11 eb c5 be d4 63 24 3f 51 d5 4b 3e
       -0.21727051 -0.38655904 0.64214826 0.19905593
000290 05 00 2e bf fd 1d 28 3d ea 74 b4 3c 08 f6 39 3e
       -0.6796878 0.041044224 0.022028405 0.1816026
0002a0 f9 c5 2c be fe e1 94 3a 82 65 d0 3e 73 fc fe be
       -0.16872396 0.0011358855 0.40702444 -0.49801978
0002b0 f0 2d e6 bd a0 e0 b3 3d 39 7f ac be 97 04 db be
       -0.11239231 0.08783078 -0.33690813 -0.4277694
0002c0 68 85 93 3e b2 c9 9e be a2 56 92 3e c5 69 b7 bd
       0.28812718 -0.31013256 0.2858172 -0.08955721
0002d0 93 30 57 bf b1 e3 2b bf 4d ff 67 3e 90 fe 73 3e
       -0.84058493 -0.67144305 0.22655983 0.23827577
0002e0 d3 c5 52 be 00 05 e9 3e 08 e7 00 bd ea 20 3c bd
       -0.20583276 0.45511627 -0.03147033 -0.045929827
0002f0 83 60 6e 3e 38 72 8e bd c8 e2 0d bf d0 67 3a bf
       0.23279004 -0.06955379 -0.55424166 -0.72814655
000300 ec 05 0c bf f7 bd 2b be f3 b6 10 3e 94 f8 84 3d
       -0.54696536 -0.16771685 0.1413229 0.06492725
000310 bb 65 1a 3d c3 63 25 bf d5 11 fc 3e a7 50 0f 3e
       0.037694674 -0.6460535 0.49232355 0.1399561
000320 4e 29 d8 be 43 d7 92 3e 96 b1 69 3e 68 7a 92 be
       -0.42219013 0.28679857 0.2282165 -0.28609014
000330 11 1b 59 3e d2 9e df 3d e5 6c 52 3e 00 49 55 be
       0.21201731 0.109189644 0.20549352 -0.20828629
000340 6a 7a dd be 3e a1 b4 be 0d 77 1f 3f 3d 76 6c bd
       -0.43257457 -0.35279268 0.6229103 -0.05772995
000350 21 1f 0e be 6d 92 34 3f 31 54 9a bd b3 2d 42 bd
       -0.13879062 0.7053593 -0.075355895 -0.047406863
000360 93 96 15 bf cd 1d 23 3f e3 55 c4 be af f4 6e be
       -0.58432883 0.6371735 -0.38346776 -0.23335527
000370 a9 bc 95 be 76 7f 76 3d 4b 0b 21 bf 0e de 14 3e
       -0.292455 0.06018015 -0.62907857 0.14537832
000380 98 e5 d5 be 3e 03 ba 3a fb 1f c5 be ec a1 c6 bd
       -0.4177673 0.001419164 -0.38500962 -0.09698853
000390 ef 07 0d 3d cb 0d 17 3f 70 6c ec 3e 6b dc 90 be
       0.034431394 0.5900542 0.4617648 -0.28293166
0003a0 3d a0 1c bd e4 e1 5d be c2 fb 3e bc 2a 6b b5 3d
       -0.038238753 -0.21668202 -0.011656703 0.088583305
0003b0 ae 7d 67 3e 9b 37 12 bf af 59 4a bf 26 b2 24 be
       0.22606537 -0.571161 -0.79043096 -0.16083583
0003c0 b1 36 87 3e 98 90 ad 3e 83 9b 2d bf a5 3b 87 be
       0.26408914 0.3389938 -0.6781542 -0.26412693
0003d0 cb b8 92 be 78 74 0e 3f 2a 35 30 3d a4 d9 46 be
       -0.2865661 0.5564647 0.04301945 -0.19418961
0003e0 26 b6 41 3f 3e d9 29 bf cd e3 b1 bd 41 e8 aa 3e
       0.7566856 -0.6634711 -0.08686028 0.3338032
0003f0 d2 17 43 be 45 b2 95 3e 19 ac 65 be 80 4b 34 bf
       -0.19052055 0.2923757 -0.22428931 -0.70427704

arith.constant1 f4 [16, 32]
000000 86 20 b9 bd 06 fd c7 3d b1 cc b7 3e 2d 73 1f 3f
       -0.090394065 0.09765057 0.35898355 0.6228512
000010 64 c0 ec be 47 4a 0d 3e f7 a9 ba 3d d2 b6 97 3e
       -0.46240532 0.13797866 0.091144495 0.29631668
000020 6d 72 79 3e 98 4f 26 be f1 70 b5 be f1 27 dd 3e
       0.24360056 -0.162413 -0.3543773 0.43194535
000030 5f 5d 99 be bb 1c c4 3e 3b 3a 87 3e eb 41 12 3f
       -0.2995405 0.3830317 0.26411614 0.5713183
000040 66 4e 0f 3e 35 c6 f2 bd f4 7f 24 bf c2 d6 b4 3d
       0.1399475 -0.11854211 -0.6425774 0.08830024
000050 b4 2a 2f 3e 30 3f 90 bd 00 b8 7f be 30 7c 96 3e
       0.17106134 -0.07043302 -0.24972534 0.29391623
000060 19 76 28 bd fa 88 67 be 08 80 b5 be 0a 6f d8 3e
       -0.04112825 -0.22610846 -0.35449243 0.42272216
000070 e8 ce 51 3e f6 b3 04 bf cd 49 ce be 32 aa f3 bd
       0.20489085 -0.518371 -0.4029068 -0.118976966
000080 00 bb f0 3e e8 57 ab be 53 d1 8f 3e ef 42 7a 3e
       0.4701767 -0.33465505 0.2808939 0.24439596
000090 72 f6 6f 3e 85 b6 76 be 9c 48 66 bf 2a df 51 3e
       0.23433855 -0.24093063 -0.89954543 0.20495287
0000a0 ad 96 d6 3c d4 b1 61 3f 1b a5 df be c4 d5 96 3e
       0.026194895 0.8816197 -0.43680653 0.29459965
0000b0 12 c3 f7 be c2 c2 80 3e e2 f3 1d 3f 42 fd e5 be
       -0.48391014 0.25148588 0.6170026 -0.44919783
0000c0 fe d9 12 3f 01 a1 e4 3d 54 e7 10 bf 2f d9 1b 3f
       0.5736388 0.111635216 -0.5660298 0.6087827
0000d0 25 12 51 3b 1f 35 8f bd 0a a0 f9 3d be 18 94 3e
       0.0031901684 -0.06992554 0.12188728 0.28925127
0000e0 97 d1 66 be 66 ee 53 be 89 77 a7 be 29 76 82 3e
       -0.2254089 -0.2069641 -0.32708386 0.25480774
0000f0 e3 45 0f be 2b dd cf 3e 5a 47 bb 3e 73 87 dc 3e
       -0.13991503 0.40598425 0.36577874 0.4307209
000100 8f c1 91 be 57 88 dc 3e ce 07 cf bd 31 95 22 be
       -0.28467986 0.4307277 -0.101089105 -0.15877225
000110 aa f2 0d bf 6a 3f 3b be 22 13 f3 3d 23 d1 9c 3e
       -0.554484 -0.1828591 0.11868884 0.3062831
000120 e0 76 76 3f b9 70 74 bd 9e 33 0e 3e 62 3d 7d 3d
       0.9627514 -0.059677813 0.13886878 0.061826117
000130 82 00 ce bc 8f 51 d5 3d 98 c4 b7 3e d0 44 76 3e
       -0.025146727 0.10415947 0.35892177 0.24049687
000140 86 f5 17 3f 8a 03 80 be f7 6a 10 bd 7d b2 2f be
       0.59359014 -0.250027 -0.03525826 -0.17157932
000150 9b 82 04 bf 36 7f 3a 3e 34 58 51 3e da bb 56 3e
       -0.5176179 0.1821259 0.20443803 0.20970097
000160 95 01 ba 3e 03 d8 bb 3e 95 3b 61 3e 98 44 a2 bc
       0.36329332 0.3668824 0.21995385 -0.019808099
000170 1e 35 45 be c5 88 a6 3e 5b 60 f6 be 35 52 d8 3e
       -0.19258544 0.32526222 -0.48120388 0.4225022
000180 14 8d c9 be e1 aa e1 be 91 6e da 3e d6 50 06 3f
       -0.39365447 -0.44075683 0.4266248 0.52467096
000190 bc 59 6f 3e f0 08 07 bf 7b 5d 0a bf 74 54 6b 3e
       0.23374075 -0.5274801 -0.5404889 0.22981435
0001a0 32 d4 53 3e 1e 33 d1 3e cb 49 5f 3e 9f b0 b9 3e
       0.20686415 0.40859312 0.21805494 0.36267564
0001b0 42 51 82 bb 7f e1 c4 be e8 1c cd 3e ac 48 90 3c
       -0.003976972 -0.3845329 0.40061116 0.017612778
0001c0 a5 df 52 3e 46 ed 95 3e 9b e4 99 bd 43 ea ce 3e
       0.20593126 0.29282588 -0.07514306 0.40413103
0001d0 27 b5 bd 3e 01 0c 90 3e e7 ef 61 3c 37 7a d4 3e
       0.3705227 0.28134158 0.013790107 0.41499493
0001e0 7e a1 79 bd 78 94 6b bb 6d f9 5c 3e 9c 90 00 be
       -0.060945027 -0.0035946649 0.21579523 -0.12555164
0001f0 57 0e 10 3e c0 d4 20 be 09 22 4f bf 9c 68 81 bd
       0.1406797 -0.15706158 -0.8091131 -0.06318781
000200 52 c1 d9 be 98 38 43 bf 1b 7a af be 9b 18 40 3d
       -0.42530304 -0.7625823 -0.34272847 0.046898466
000210 87 0c 1e 3e 32 68 ad 3a dd 07 ab be e1 0c 00 bf
       0.15434466 0.0013229905 -0.33404437 -0.5001965
000220 3a 29 66 be ab a0 43 3f 02 7b 65 bf ca 76 95 3e
       -0.22476664 0.76417035 -0.8964082 0.2919219
000230 04 67 c3 be 6c ac 1b 3f 90 b4 9a be 9c 12 1e be
       -0.38164532 0.6080997 -0.30215883 -0.15436786
000240 f0 72 d2 be e9 d0 00 bf b0 f6 e5 3d 10 76 d2 3e
       -0.41103315 -0.5031877 0.112286925 0.411057
000250 ae 5d 19 3e 76 d9 2a 3e 37 86 1c 3e 66 60 e7 bd
       0.14977142 0.16684517 0.15285574 -0.112976834
000260 38 4f b4 3e 55 a5 18 3d 06 ea d4 bd 7f 1f 68 3e
       0.3521669 0.037267048 -0.10396199 0.22668265
000270 1c df 82 3d 30 74 8b 3e db 31 72 bf 35 28 ab be
       0.06390211 0.27237082 -0.94607323 -0.33429113
000280 da 5e 14 3f 19 0a d1 3b e5 52 8b be ba 84 21 3f
       0.5795723 0.0063793776 -0.2721168 0.6309315
000290 2e 34 94 3e d3 b9 6a be 62 7a c5 be 8d 21 f4 3c
       0.2894606 -0.22922449 -0.38569933 0.029801155
0002a0 1b 30 2c 3e f6 64 2e 3f 78 fe b7 be bf d0 73 bd
       0.16815226 0.68122804 -0.35936332 -0.059525248
0002b0 9e af e7 be aa d1 bc bd 5f 66 88 3d 63 95 58 3e
       -0.45251173 -0.09219678 0.06660151 0.21150737
0002c0 5b 98 dd bc 3a 2c 21 3e 8d 6b ba 3e 34 cb 9a be
       -0.027050188 0.15739527 0.3641018 -0.30233157
0002d0 7e f4 50 3d 25 90 56 be 77 6f 14 be fa a2 88 3e
       0.051014416 -0.20953424 -0.14495645 0.2668684
0002e0 25 de 9e be 58 77 0f be 47 10 ad 3e f1 30 85 3b
       -0.31028858 -0.1401037 0.3380148 0.004064672
0002f0 0b 15 b0 be c9 b3 85 3e 10 78 ff 3e ec 03 e2 3e
       -0.34391055 0.26113728 0.49896288 0.44143617
000300 34 f1 a5 be d9 ff 99 3e 02 6c 41 bf 0f 97 f3 3e
       -0.32410586 0.3007801 -0.7555543 0.47576186
000310 1d 30 00 be 01 88 fe be 4a a2 b9 3e 2d a0 85 bd
       -0.12518354 -0.49713138 0.3625663 -0.06524692
000320 f3 00 55 3f 14 74 7f 3f f8 ae 59 be c8 ed 07 3f
       0.83204573 0.99786496 -0.21258152 0.530972
000330 2b bd ca 3e 76 f5 88 be 4e da b5 be 37 b9 2d be
       0.3959745 -0.26749772 -0.35518116 -0.16965185
000340 94 1b 14 3e e0 8c a1 3e ee 91 75 be 5d 53 11 bf
       0.14463645 0.31552792 -0.23981449 -0.5676783
000350 15 9d 19 bf bc cc 43 3e a8 b7 6e 3f 5c ee 21 3e
       -0.60005313 0.19121069 0.9324899 0.15813583
000360 f5 b6 04 3e b9 cc fc be ef ad 70 3e aa cb 08 be
       0.12960418 -0.4937494 0.2350385 -0.13358942
000370 10 3a 02 3f d0 76 9e 3e 5f 2a 78 bd b8 a7 92 be
       0.50869846 0.30950022 -0.060587283 -0.28643584
000380 80 56 36 be cf 2b 44 3d 82 e5 10 3e 82 92 49 3e
       -0.17806435 0.04789334 0.1415005 0.19684795
000390 e9 39 4c be 3e be a0 be a2 16 62 be 46 3f 13 3d
       -0.19943966 -0.31395143 -0.22078946 0.035949014
0003a0 74 b4 a9 be 43 77 b2 be c7 01 1b be 18 a9 b2 bd
       -0.33145487 -0.34856614 -0.15137397 -0.08723658
0003b0 ca 41 87 be 72 72 3a be 50 de ac be 0f f2 25 3e
       -0.2641738 -0.1820772 -0.3376336 0.1620562
0003c0 a6 55 fc bd 93 1a a2 be b4 f4 06 3b c6 96 0e 3e
       -0.12321024 -0.316609 0.0020592632 0.13924703
0003d0 30 e3 05 3e 11 6c c5 3d 0e 77 11 bd dc 18 92 be
       0.13074946 0.09639753 -0.03551393 -0.2853459
0003e0 8f b0 52 be 3f d3 96 be b0 35 2a 3d 4f a6 bd 3d
       -0.20575164 -0.29458043 0.041555107 0.092602365
0003f0 35 3f 5a be 17 4e 9c be 9e a0 6e be 85 01 85 be
       -0.21313174 -0.30528328 -0.23303458 -0.25977722

arith.constant2 f4 [32, 64]
000000 70 5b ac 3e bf 91 9b be a7 bc 2e 3d 26 9d 10 3e
       0.3366351 -0.30384633 0.04266038 0.14122447
000010 25 27 89 3d c3 3c f7 bc a6 9a 76 3e 42 20 9f 3e
       0.06696919 -0.03018034 0.24082431 0.31079298
000020 78 11 cd be 44 fd 77 3e 84 3a 51 bd 62 73 7f 3e
       -0.4005239 0.24217707 -0.051081195 0.24946359
000030 63 b6 d3 3d c2 95 97 be d8 7a 45 3e 16 93 82 3c
       0.10337522 -0.29606444 0.19285142 0.015939277
000040 05 4e 7b 3e 49 6b 47 3e 85 16 9c bd 7e 00 f8 3b
       0.24541481 0.1947452 -0.07621483 0.007568418
000050 99 43 a4 3e 82 81 dd bd 7f 84 0b 3e 2d 49 5b bd
       0.32082823 -0.10815717 0.13624762 -0.053536583
000060 34 d1 ca 3d b4 11 ad be ac fc cf be e3 ae b0 3c
       0.099031836 -0.3380257 -0.4062246 0.021567767
000070 49 0d 12 be 97 05 77 be c0 ab 39 3e d2 d9 57 bd
       -0.1426288 -0.24123226 0.18131924 -0.052697964
000080 32 f6 67 be 74 59 d6 be 30 fa 27 3e da 77 91 3e
       -0.2265251 -0.41865122 0.16404033 0.28411752
000090 67 8e 49 3d 73 7d 01 3e 95 43 85 be d1 61 a3 b9
       0.04920807 0.12645511 -0.26028123 -0.00031162662
0000a0 56 4f 5d be 3c cf c2 bd e9 91 91 3b 5e 45 2a 3e
       -0.21612296 -0.09512183 0.0044424427 0.16628024
0000b0 a4 a4 43 3e 95 63 9f bd eb 7c bf bc 7e 5f a1 3e
       0.19105774 -0.07782666 -0.023374995 0.31518167
0000c0 40 fb f4 bd c6 d0 01 be 7c 0f 04 3c 6f 9f 0b 3e
       -0.11961985 -0.12677297 0.008060332 0.13635038
0000d0 6a 78 6d be 58 3f 73 be f6 b1 4f be c7 0f 08 be
       -0.23190466 -0.23754632 -0.2028273 -0.13287269
0000e0 10 d2 9a 3c 27 2d 21 be 9d 56 8d 3d 8a f3 90 3e
       0.018898994 -0.1573988 0.06901286 0.28310806
0000f0 df 05 b7 bd 35 a2 65 3d 8f f8 e6 bd 01 6d 50 3d
       -0.08936667 0.056062896 -0.112778775 0.050885204
000100 e2 1d 61 3e 9b 57 a9 3e e5 2b c9 3b 1b 1b cd be
       0.21984056 0.3307465 0.006139266 -0.40059742
000110 e1 27 49 3e a3 65 1d be 44 86 6f 3e 35 df 07 3e
       0.19644119 -0.15370803 0.23391062 0.1326874
000120 08 89 1e 3d 9c df 8c 3d 4a af 84 be 39 e3 45 3e
       0.038704902 0.068785876 -0.25914985 0.1932496
000130 82 9a 69 be 44 db 07 3f 21 bb 84 3e c1 6e 67 3a
       -0.22812846 0.5306895 0.25924018 0.00088284543
000140 75 0d 65 3e 63 0c 98 3e 2f 79 27 3e 87 db ed 3d
       0.22368415 0.2969695 0.16354822 0.11614137
000150 6e 1a be be ab 17 c0 be 24 e8 9e bd f7 45 af be
       -0.3712954 -0.37518057 -0.07759121 -0.34233066
000160 04 0f 88 3e fa 4e a5 3e 87 a1 cd bd 95 eb ce 3e
       0.26573956 0.32286817 -0.100405745 0.4041411
000170 7c d4 7a be 85 20 95 be 49 96 0a 3e dc af 19 3c
       -0.24495119 -0.29126373 0.13533892 0.009380307
000180 ae 5d 11 3a 20 13 09 3f 4d 0e de bd b7 12 6a be
       0.00055452704 0.5354481 -0.108425714 -0.22858702
000190 ad 15 8a 3e 18 8b 86 3d f4 4b 76 3e c8 10 8c bd
       0.26969662 0.06569499 0.24052411 -0.06839138
0001a0 81 64 87 3d 3c 48 5a 3e 7c 25 c3 bd 1f 5f e7 3c
       0.066109665 0.21316618 -0.09528634 0.0282436
0001b0 5e 65 76 be ec 98 b2 bd 5d 84 19 3d 6d f5 a9 be
       -0.24062106 -0.08720574 0.037479747 -0.33195058
0001c0 1c 70 92 3e 28 23 a9 be c1 40 e5 be 79 81 cf 3e
       0.28601158 -0.33034635 -0.44775966 0.40528467
0001d0 b6 27 54 3e d3 99 68 bc 80 b2 b7 3e 51 28 89 be
       0.20718274 -0.014196831 0.35878372 -0.2678857
0001e0 1a b0 1b 3e 89 57 d2 be 77 9f 71 bd 80 e4 41 be
       0.15203896 -0.4108241 -0.05898997 -0.18934822
0001f0 39 81 e3 3d bf 66 d9 bd 39 10 e5 bd 53 72 8a be
       0.11108632 -0.106153004 -0.11184735 -0.27040347
000200 f6 d9 b5 3e c2 e3 00 be 9a 84 9e bd 99 8a 20 3d
       0.35517853 -0.12586883 -0.077401355 0.039194677
000210 df a1 c6 3d c3 46 53 bc 29 30 c3 3e 47 7a b4 3d
       0.09698843 -0.012895289 0.3812268 0.08812385
000220 ed 42 12 bf 56 ff 1a 3f 6a b9 a5 be 84 bf 23 bf
       -0.5713337 0.6054586 -0.32368022 -0.63964105
000230 65 12 be 3c 23 8c 75 bd 1f 9b de 3e c4 2e c0 3d
       0.02320213 -0.059948098 0.43477723 0.0938392
000240 2b ef 09 bd 38 7d 00 3e 05 c9 a9 be c2 ef 78 be
       -0.033675354 0.12547767 -0.33161178 -0.2431021
000250 66 28 ae 3d a7 bf 97 3e 54 a6 e1 3d e4 a0 9b 3e
       0.08503799 0.29638407 0.11018053 0.30396187
000260 61 46 de bd da b6 8d 3d df d9 e8 be 59 0b 51 bd
       -0.108532675 0.06919642 -0.45478722 -0.051036213
000270 8d f8 8f be 41 ba 76 3e 84 62 5c bd 38 23 0a be
       -0.28119317 0.24094488 -0.05380489 -0.13489997
000280 dd ce b2 bc e9 fa 45 3e 28 0b d6 be f4 a0 1d 3e
       -0.021827156 0.19333996 -0.41805387 0.1539343
000290 ff c4 7c bd 09 44 bb be 78 78 01 be 66 79 fe 3d
       -0.061711308 -0.36575344 -0.12643611 0.12425499
0002a0 e7 05 da 3d af 4f 0d be 91 8c a5 3d 84 7c 24 bf
       0.10645657 -0.13799928 0.080834515 -0.64252496
0002b0 6d 51 c3 3e 4a 3e 8a 3e 57 45 af bd a7 b6 26 3e
       0.3814806 0.27000648 -0.085581474 0.16280614
0002c0 0a b2 b0 be 77 ac 9e 3e 97 bc af be e8 05 40 3e
       -0.34510833 0.30990955 -0.3432357 0.18752253
0002d0 75 f6 05 bd 2c ce 9c 3d 08 62 be 3d 86 ca 3e 3f
       -0.032705743 0.07656512 0.09296042 0.74527776
0002e0 99 fc c7 3e 94 9c 0c be 12 15 34 3e 26 6a 1e 3e
       0.39059904 -0.13731605 0.17586163 0.1547018
0002f0 dc 35 48 be 88 4d 28 bd 35 18 7c 3e b7 c0 18 3e
       -0.19551796 -0.041089565 0.24618609 0.14917265
000300 2f ef 3d be cd f4 72 3d 2b f4 e3 bd d3 b4 1c 3e
       -0.18548273 0.05931549 -0.11130556 0.15303354
000310 8c 61 a7 be 50 8c 23 bf 00 61 d1 be 4d 0e cb 3d
       -0.3269161 -0.63885975 -0.40894318 0.09914837
000320 be de 12 bd 13 f8 84 3e fc 84 f8 bd 5b 2f c9 be
       -0.035856955 0.25970516 -0.1213474 -0.39293942
000330 ea eb 0f 3f 6a 44 08 be 62 38 b7 be c2 c8 ac be
       0.5621935 -0.13307348 -0.35785204 -0.33746916
000340 fe 45 bd bd ef d4 2f be eb 1d e0 3e e1 6f 17 3e
       -0.092418656 -0.17171071 0.43772826 0.14788772
000350 96 a4 cc be 9b ba 47 be f8 a8 74 3e 07 ff b8 3e
       -0.3996932 -0.19504778 0.23892581 0.3613207
000360 99 59 75 3d f7 73 a8 be c9 bc 41 3c 22 d6 12 3f
       0.0598999 -0.32900974 0.011824795 0.5735799
000370 c1 b4 66 be 74 d2 07 3f 57 5c 55 3c 69 67 0e bf
       -0.2252989 0.530555 0.013022504 -0.5562654
000380 31 11 80 be 6b d2 1b 3d 00 94 b5 bd 11 3b 63 be
       -0.25013116 0.038042467 -0.088661194 -0.22190501
000390 d1 54 2e be 79 6b fd 3d e6 76 bb be 81 fd f3 3e
       -0.17024542 0.123740144 -0.3661415 0.47654346
0003a0 bf 17 10 3e 98 c4 9f 3e 73 75 68 be 90 b8 2a bf
       0.14071558 0.31204677 -0.22701053 -0.6668787
0003b0 58 ab 03 3f 0f ba 15 be cb ec 57 be 48 3a 12 bd
       0.51433325 -0.14621757 -0.21086423 -0.035700113
0003c0 09 b6 38 be 4f ad ed 3e 60 5c 92 3e a4 b4 c3 3e
       -0.18038191 0.46421286 0.28586102 0.38223755
0003d0 0d 3a 6c be aa 05 8c be 2e 06 30 be 1c 8b 84 3e
       -0.2306902 -0.2734807 -0.17189857 0.25887382
0003e0 25 39 11 3e 07 54 c3 3e 89 c9 0b be f3 6d c1 be
       0.14181955 0.38150045 -0.13651098 -0.37779197
0003f0 da ea e4 bd cd 8e 98 3e 9b 02 3d 3d 87 04 7f 3e
       -0.11177607 0.29796448 0.046145063 0.24904071

functional_1/dense_1_2/BiasAdd/ReadVariableOp f4 [32]
000000 64 30 62 3e e6 c5 b8 3c 20 07 99 3c 22 66 94 3d
       0.22088772 0.022555303 0.018680155 0.07246043
000010 79 dd 27 3e ac ad 46 be fb c7 92 bb 9e 17 6a bd
       0.16393079 -0.19402188 -0.004479406 -0.05715143
000020 b0 6d d2 3e 0d 9b 56 3b 27 e1 5c 3e 32 65 42 bb
       0.4109931 0.0032746226 0.21570264 -0.0029662368
000030 c1 b2 4f 3d 75 f0 cd 3d 2f 4c 02 3d fc f1 0e 3e
       0.050707582 0.10055629 0.031810936 0.13959497
000040 b0 9a 36 3e 20 7f c7 3e 9d 4b 94 bd 71 7e 2c bd
       0.17832446 0.38964176 -0.072409846 -0.04211277
000050 e9 e1 cc bc a6 76 7a 3a 4b 2e 1c be 03 aa 50 3d
       -0.025010066 0.0009554423 -0.15252034 0.050943386
000060 ba aa 3a 3e 37 1b 8c 3d c4 95 bd 3e 30 23 e4 3c
       0.1822919 0.06841128 0.37028325 0.02784881
000070 4d 45 27 3e 42 9d 4c 3c ea cc 3d 3e e5 dd 41 3d
       0.1633503 0.012488665 0.185352 0.047330756

functional_1/dense_1/BiasAdd/ReadVariableOp f4 [64]
000000 53 06 72 3d 38 c2 89 bd 50 42 2d 3e 5a 12 bc be
       0.059088062 -0.067264974 0.16919827 -0.3673275
000010 5c 7c d2 be f8 9b 9e be 58 e8 bf 3d a3 3a e1 3d
       -0.41110504 -0.3097837 0.09370488 0.10997512
000020 c0 e6 b3 be b2 6c 41 3d 99 b4 30 bd 95 63 a2 be
       -0.35136986 0.0472228 -0.04314098 -0.317166
000030 ab f4 81 be d8 3c 3f be 71 c3 47 3e dd 4b e7 bd
       -0.2538198 -0.18675554 0.19508149 -0.11293767
000040 9e cc aa bc fb c3 c3 be c2 f3 8f bd 53 d2 2b be
       -0.020849522 -0.3823546 -0.07028915 -0.16779451
000050 69 2f 5d 3d 1c a6 57 be d8 cd 6b 3e 81 a3 48 bd
       0.054000292 -0.2105946 0.23027742 -0.048984054
000060 0d 28 a3 bc c4 1a 75 3e b4 6e 03 bf 54 4d ac bd
       -0.019916559 0.23935992 -0.51340795 -0.08413187
000070 4b 9f 54 bd 8c 39 cf be 0e cb 09 3e 53 eb 87 bd
       -0.051909726 -0.40473592 0.13456365 -0.066366814
000080 9e 07 7d 3e b0 f5 40 3b d4 ab 44 be 15 37 93 3e
       0.24709937 0.0029443316 -0.19206172 0.28752962
000090 6a 59 4e 3d be b5 9f bc 19 3b d4 3d 2e a7 60 be
       0.05037824 -0.019495841 0.103628345 -0.21938774
0000a0 ca 15 00 3e 39 d1 7d bd 94 0d 82 be 84 58 e0 be
       0.12508312 -0.06196711 -0.25400984 -0.43817532
0000b0 cc 02 27 3e 0e b8 4c be e6 9a 83 be 99 58 72 be
       0.1630966 -0.19992086 -0.25704116 -0.2366661
0000c0 0c 2c 4f 3e 9d 77 4b 3b cf e4 84 be e0 c7 fd 3d
       0.20231646 0.0031046637 -0.25955817 0.12391639
0000d0 fc 24 ec bd 4e 81 eb be e9 24 a2 3e 7f 2f 3b be
       -0.11530492 -0.4599709 0.31668785 -0.18279837
0000e0 94 1d 28 be f4 6e 5e 3e ba 5e 47 3e 2e 9c 10 be
       -0.16417533 0.21722013 0.19469729 -0.14122078
0000f0 90 b9 03 3c 48 e5 4e 3e 82 4d 04 be 00 f9 df bd
       0.008039847 0.20204651 -0.12920192 -0.10936165

functional_1/dense_2_1/BiasAdd/ReadVariableOp f4 [16]
000000 1d d9 0e be 4f e4 53 bd 2b e3 8f 3d 3e 82 83 3d
       -0.1395001 -0.051731404 0.07025751 0.06421326
000010 09 a2 ce bc 99 d7 8c 3d 84 e4 62 3e 18 1e 0a bc
       -0.025223749 0.068770595 0.22157484 -0.0084300265
000020 9f c4 58 3e 29 2b f3 3c 1e b5 19 be 47 f4 8f 3d
       0.21168755 0.029683666 -0.15010497 0.07029014
000030 82 6f 41 3e ba d9 b2 3c b2 22 86 3d 1f 69 37 3e
       0.18890193 0.021832336 0.06549586 0.17911194

functional_1/dense_3_1/BiasAdd/ReadVariableOp f4 [18]
000000 e9 d5 d7 bd 1e c9 4f 3e 77 e7 68 3e d2 be 00 3e
       -0.10538847 0.20291564 0.22744547 0.12572792
000010 6a 9d 37 bd 55 c5 c4 bd 56 94 17 3f 96 9b 8c be
       -0.044827856 -0.096079506 0.5921072 -0.27462453
000020 28 86 04 3e e3 1f 86 3e 4d 82 9f 3e 0d d1 09 be
       0.12941802 0.26196203 0.311541 -0.13458653
000030 43 14 05 be ed d6 bd be 9a 69 76 be 5b 60 a3 be
       -0.1299601 -0.37078038 -0.24063721 -0.3190945
000040 3a 08 db 3d 9e 66 20 be
       0.106949285 -0.15664145

functional_1/dense_1/MatMul f4 [64, 48]
000000 20 1c 59 be af 9d 79 3e 06 14 5c 3e 71 26 dd 3d
       -0.21202135 0.24376558 0.21492013 0.10798348
000010 32 79 79 3d c9 2e ee bd 8e 52 e0 bd be 4c 05 be
       0.060906596 -0.11630017 -0.10953246 -0.13017556
000020 68 c8 0d bd 91 cd 7c bc 25 52 74 be 4a 42 29 3d
       -0.03461495 -0.01542987 -0.2385946 0.041322984
000030 bc e3 d5 bd 8d 7e f3 bd 30 b0 e4 3d a6 5e 02 bf
       -0.104438275 -0.11889372 0.111664176 -0.5092567
000040 5c 32 9a bc ff be 14 be 26 94 80 bd 01 4b 00 bf
       -0.018822841 -0.14525984 -0.06278257 -0.50114447
000050 6e da 03 be d6 f5 90 bd c6 a8 fb 3c 46 65 e7 bb
       -0.12876293 -0.070781395 0.030720126 -0.0070616333
000060 ac f3 3b 3e ef f7 67 be 75 88 66 be ca 8d 49 3e
       0.18354672 -0.22653173 -0.22512992 0.19682994
000070 e8 2a ca 3e 9d 36 ac bd 2d d7 d2 be 76 98 21 3e
       0.3948586 -0.08408854 -0.4117979 0.15780815
000080 47 e3 a4 bc f6 d0 b2 3e e6 dc b9 be 6a 4c dc bd
       -0.020127906 0.3492505 -0.36301345 -0.10756762
000090 23 7b 44 be 0b d9 25 3e b1 ac 18 3c 13 6f b5 be
       -0.19187598 0.16196077 0.009318517 -0.35436305
0000a0 f5 b0 74 3e 92 88 af 3d 6e 47 87 3e 56 97 82 3e
       0.23895629 0.085709706 0.26421684 0.25506085
0000b0 28 7d 86 3e 16 b5 24 3d 78 0f 48 bb 62 70 b7 3d
       0.26267362 0.04021176 -0.0030526798 0.08956982
0000c0 cc 34 03 3e d4 49 a7 3d 3b 7c aa 3d e2 35 93 3e
       0.12813109 0.081683785 0.08324476 0.28752047
0000d0 97 54 36 3d f0 fb 2a 3d c8 30 1a 3e 11 ee 19 be
       0.044514265 0.041744173 0.15057671 -0.15032221
0000e0 44 6d 69 3e 03 12 75 be 82 98 0f 3e ba 6b cb bd
       0.22795588 -0.23932652 0.14023021 -0.099326566
0000f0 74 01 26 bd d3 af 9c bd 72 bc a8 3d 1a 47 23 be
       -0.04052873 -0.07650723 0.08239068 -0.15945092
000100 5b 58 7a 3e b9 21 a3 be cb 2d 30 3e 4d ee c8 3d
       0.24447767 -0.31861666 0.17204969 0.09811077
000110 f1 e6 a8 bb 59 f0 d8 3d 85 c1 ac 3d e6 a1 a8 bd
       -0.0051544835 0.10592718 0.084353484 -0.08234005
000120 db 6b ac be fa 0c 04 3f bb 30 2c 3e 56 3c 35 3e
       -0.33676037 0.515823 0.16815464 0.17698798
000130 94 9a 8c be 52 4f 06 3f 3a f5 cc 3d 8d c9 4c 3e
       -0.27461684 0.52464783 0.10007711 0.1999876
000140 f6 af e7 be 3d 83 ef 3b 64 12 c3 bd 2a 2c a0 3c
       -0.45251435 0.007309346 -0.09524992 0.019552309
000150 40 d9 81 be 3d 50 77 bd 60 e3 aa bd f2 4e 45 3d
       -0.2536106 -0.060379256 -0.083441496 0.04817099
000160 9a 5f a2 3e 45 f7 61 3e 97 d5 09 be 3c 31 31 3e
       0.31713563 0.22066982 -0.13460384 0.17303938
000170 7e c3 d1 3c f7 4f 6f 3c 80 2b 67 bd f5 7d 05 3e
       0.025605913 0.014606467 -0.05643797 0.1303633
000180 fb 89 88 3c 31 2e 01 3e d1 7f 96 3e 28 f1 30 3d
       0.016667357 0.12615277 0.2939439 0.043198735
000190 f6 c6 11 bd 64 60 c8 bb 35 2d c3 3d d6 7e 3b 3e
       -0.035590135 -0.0061150063 0.09530107 0.18310103
0001a0 cb 43 1a 3e 94 d2 c5 3e 8c 38 b5 bd 3d 8c 78 3e
       0.15064923 0.3863722 -0.08848676 0.24272247
0001b0 5a 15 9c be a6 f2 2d 3e d8 9f 25 be 5f 49 f1 bd
       -0.3048504 0.16987094 -0.16174257 -0.117815726
0001c0 07 bd da bd d5 30 d1 3d e8 d4 08 3e b7 03 3e 3e
       -0.10680585 0.10214392 0.13362467 0.18556105
0001d0 58 81 8c 3c 42 15 28 bd 2d 17 97 bd 1e a9 9b bd
       0.01715152 -0.041035898 -0.07377467 -0.07600616
0001e0 16 9e d5 3d c2 16 25 bd ca 9b d9 bd ae c0 1a be
       0.10430543 -0.040304907 -0.106254175 -0.15112564
0001f0 e9 af 88 bb 9e 9a c1 3d 01 63 89 ba 6b 5f 75 be
       -0.0041713607 0.09453319 -0.0010481776 -0.2396218
000200 d7 20 0f 3e f2 56 f6 3d 84 5e 47 bd 29 49 9d bd
       0.13977371 0.12028302 -0.04867412 -0.0767997
000210 ab f2 f9 bd ee 40 0a bc e4 ce 3e 3e 62 83 03 3e
       -0.12204488 -0.008438332 0.1863361 0.12843087
000220 8e 8e 4e 3e b5 6d a8 be ad b0 d0 3e 4e 2a 14 bf
       0.20171568 -0.328962 0.40759793 -0.5787705
000230 ca a2 26 3e 46 f6 03 bd 6c 22 66 3d cb 5c 83 bd
       0.16273037 -0.032217287 0.05618517 -0.06414183
000240 e2 20 b2 bd 25 d6 00 bf c7 96 94 3d b8 8e 38 be
       -0.08697678 -0.5032676 0.07255321 -0.18023193
000250 ef 4b 26 be 9e 08 6e be 6d 84 18 3d dd e5 b4 bd
       -0.16239904 -0.23245475 0.037235666 -0.088329054
000260 cc 1f b4 3c 10 80 56 be 41 eb 47 3e f3 6c b3 be
       0.021987818 -0.2094729 0.19523336 -0.3504406
000270 6c 85 15 3e e9 31 a3 3b 91 75 92 be 32 4e c7 3d
       0.14601678 0.004980315 -0.2860532 0.097317114
000280 6a 10 a0 3d 5d de 1f be b8 9d fe bd 97 f7 2c 3e
       0.07815631 -0.15612169 -0.12432426 0.16891323
000290 5d ce 82 3a 22 cc 0f bd 8a c9 97 3c 20 7d df bd
       0.0009979714 -0.035106786 0.018528719 -0.109125376
0002a0 30 90 d8 bc 79 92 06 3f ab be 5e 3e cc 50 f3 be
       -0.026435941 0.5256725 0.21752422 -0.4752258
0002b0 8a b8 e2 3c 24 aa 24 3e e7 e0 3c 3e 6c c1 1e bf
       0.027675886 0.16080528 0.18445168 -0.6201389
0002c0 7a 76 d3 bd 1c a6 1b 3e 52 27 c5 3e 1a 1e e7 bd
       -0.10325332 0.15200084 0.38506562 -0.11285038
0002d0 69 5e b7 3d e9 4a c7 3d 01 6b e0 3d 54 af 22 bd
       0.08953554 0.09731085 0.109579094 -0.039717987
0002e0 68 c2 5f bc 68 81 c1 3d 88 38 6e 3e 68 b0 36 bf
       -0.01365719 0.094485104 0.23263752 -0.71362925
0002f0 dd 17 01 bd 2a 0a f5 3d f5 62 c1 bd 68 01 e6 3d
       -0.0315169 0.11964829 -0.09442703 0.11230737
000300 4d 04 b4 3d 25 28 4d be 56 e6 a0 3e c2 c5 fa bd
       0.08789883 -0.20034845 0.31425732 -0.122447506
000310 74 c7 8c 3d d7 d9 16 3e d6 48 b9 3e 42 95 85 bd
       0.0687398 0.14731537 0.36188382 -0.06522609
000320 24 8b 49 3e 6b 10 12 be 37 c8 30 3e cc ee 88 be
       0.19681984 -0.14264075 0.17263876 -0.26744688
000330 fb fa 2f bb 2d 19 cc 3d bc 71 f8 3d 10 16 9e 3e
       -0.0026852477 0.099657394 0.12131068 0.30876207
000340 eb 42 c9 3d 64 12 66 be a0 ee b2 3b b7 ef 72 3e
       0.09827217 -0.22467953 0.005460575 0.23724256
000350 59 ab 5f bd 77 6b 3e 3d bf 65 ac 3d be 26 08 be
       -0.05460677 0.046489205 0.08417844 -0.13296029
000360 3b 9e 4c 3e 81 dc 90 3e 5d 47 33 be 51 7c 75 3e
       0.19982235 0.2829323 -0.17507692 0.23973204
000370 99 ec f8 3d b9 12 da 3d e4 4c a6 be 4d dd dd 3d
       0.121545024 0.10648102 -0.32480538 0.108332254
000380 09 bc ef 3d 9a 96 ef 3d d7 a0 c8 be 9c c4 15 3e
       0.11705787 0.11698647 -0.3918521 0.14625782
000390 c5 48 9c be 13 22 bf bd 44 3b ca be 12 b7 00 3e
       -0.3052427 -0.09332671 -0.3949834 0.12569836
0003a0 66 d0 7a bd 2b 45 ac 3e 93 a8 86 bd 47 10 9e bd
       -0.0612339 0.3364652 -0.06575122 -0.077179484
0003b0 de 7f e6 3d 75 80 8d bc 3d fa 00 bd 87 6b be 3e
       0.112548575 -0.017273167 -0.031488646 0.37191412
0003c0 3f cf e6 be 8b 54 e3 3c 8d 39 3d be be a6 9f 3d
       -0.4507999 0.027750274 -0.18478985 0.077954754
0003d0 b8 b7 e1 be e5 8e c8 3d 5d 3b a3 bc 4d c8 bd 3c
       -0.4408548 0.0979288 -0.019925768 0.0231668
0003e0 bc 61 20 bf 09 fd 07 3e 8e df d3 3d 71 6a 14 be
       -0.6264913 0.13280119 0.10345374 -0.14493729
0003f0 7f 62 c2 3e 4e b9 30 3e 9f 16 f0 3d 0f 03 cc be
       0.37965772 0.17258188 0.11723065 -0.39846084
