software/machine_learning/deprecated/model_batch_size_256.tflite (tflite, 29316 bytes, 8 tensors)

arith.constant f4 [5, 32]
0.008609769 0.079811 0.057554703 0.28760108 0.16415873 0.08076999 -0.3497382 -0.32971582
-0.24078737 0.28186998 0.26649463 0.28442058 0.11464259 -0.18133791 0.22950305 0.23912571
0.21579313 -0.36051273 -0.590949 -0.4334423 -0.19187775 0.007521705 -0.015522004 0.3206914
-0.20708755 0.417253 0.07633831 0.37655285 -0.71150094 -0.44723213 0.36481798 0.17556207
0.08422992 -0.84008336 -0.50520134 0.28784794 0.42312273 0.16683969 -0.10176452 0.2815007
0.115526475 0.5372554 0.05039412 -0.09623445 -0.57939994 0.25398546 -0.2671161 0.46787098
-0.29374257 0.03764064 -0.11345077 -0.26045343 -0.06382075 0.19508716 -0.48163754 -0.78821695
0.38857833 -0.12965633 0.059293944 0.27905577 -0.4370793 -0.03772557 -0.11313095 -0.17533818
-0.41943082 -0.61411506 0.3007478 -0.25971624 0.22606888 0.3738159 0.11156191 0.35596934
-0.55861884 -0.07083443 0.5088196 -0.15698767 0.12068141 -0.23750523 -0.010647945 0.07685461
-0.24202165 0.3884903 -0.033653986 0.048449233 0.46086195 -0.39698794 0.18923296 0.723468
-0.114758715 0.3600238 -0.3640344 0.01454976 0.4262865 0.32730198 -0.67077804 -0.089302406
-0.5056311 -0.46455985 -0.22709309 -0.03804318 -0.77482 -0.37399396 0.60765827 0.18798663
0.54914016 0.4626412 -0.29062685 0.02228247 0.18582106 0.32364076 -0.1868793 -0.32911167
0.3305244 -0.43970892 0.12266539 0.12989743 -0.06032795 0.08673987 -0.030633066 0.13062806
0.024866378 -0.30721724 0.029970914 -0.035850875 0.048880216 0.11185938 -0.334835 0.13980982
0.21579194 0.28990212 -0.1648103 0.35181466 -0.07366118 0.48779044 0.33463842 -0.3232499
-0.17814733 -0.19594796 0.26041946 0.1880287 0.19317766 0.17917567 -0.36116308 -0.033983633
0.27480763 0.187336 0.12334159 0.49537733 -0.31651542 -0.3363922 -0.16615778 -0.26188058
-0.3830266 0.02162496 0.28646845 -0.34607434 0.052494366 0.27693093 -0.09270195 -0.33126628
00000000: fd0f 0d3c f373 a33d 7bbe 6b3d 7340 933e
00000010: 3a19 283e bd6a a53d e310 b3be 83d0 a8be
00000020: f790 76be 4351 903e fc71 883e 939f 913e
00000030: bcc9 ea3d a5b0 39be d902 6b3e 5fdd 743e
00000040: e0f8 5c3e 2095 b8be 6f48 17bf 26ec ddbe
00000050: 9a7b 44be a278 f63b 0150 7ebc aa31 a43e
00000060: c20e 54be 2fa2 d53e 4357 9c3d 89cb c03e
00000070: ed24 36bf 9cfb e4be 6cc9 ba3e 8bc6 333e
00000080: bc80 ac3d b40f 57bf e054 01bf ce60 933e
00000090: 8ba3 d83e 06d8 2a3e eb69 d0bd dc20 903e
000000a0: 2599 ec3d 9289 093f 116a 4e3d 9116 c5bd
000000b0: 8e53 14bf 620a 823e 71c3 88be c98c ef3e
000000c0: 6d65 96be 122d 1a3d e158 e8bd 275a 85be
000000d0: 74b4 82bd eec4 473e 3299 f6be 96c8 49bf
000000e0: bdf3 c63e a1c4 04be 35de 723d 66e0 8e3e
000000f0: dcc8 dfbe 2186 1abd 33b1 e7bd da8b 33be
00000100: a3bf d6be a536 1dbf 9efb 993e 87f9 84be
00000110: 9a7e 673e cc64 bf3e 927a e43d 9d41 b63e
00000120: a501 0fbf a411 91bd 0042 023f 60c1 20be
00000130: d127 f73d 9234 73be b874 2ebc f365 9d3d
00000140: 86d4 77be 33e8 c63e c3d8 09bd b472 463d
00000150: 19f6 eb3e 0142 cbbe 49c6 413e 3335 393f
00000160: 9e06 ebbd 0a55 b83e b862 babe 1e62 6e3c
00000170: 3942 da3e 2094 a73e 1cb8 2bbf 2ee4 b6bd
00000180: 0a71 01bf cada edbe 178b 68be 2ad3 1bbd
00000190: 9b5a 46bf 237c bfbe 7e8f 1b3f 917f 403e
000001a0: 7394 0c3f 4fdf ec3e 0bcd 94be ba89 b63c
000001b0: e047 3e3e 3eb4 a53e 4a5d 3fbe 5381 a8be
000001c0: 7f3a a93e 8721 e1be fe37 fb3d d503 053e
000001d0: 711a 77bd aca4 b13d 32f2 fabc 5dc3 053e
000001e0: 93b4 cb3c 944b 9dbe 9085 f53c 5ed8 12bd
000001f0: 9f36 483d 8816 e53d 7e6f abbe 4e2a 0f3e
00000200: 90f8 5c3e 0d6e 943e 08c4 28be 0d21 b43e
00000210: acdb 96bd abbf f93e ba55 ab3e 0381 a5be
00000220: 416c 36be 95a6 48be b355 853e 988a 403e
00000230: 5dd0 453e d479 373e 5eea b8be 6c32 0bbd
00000240: 96b3 8c3e 02d5 3f3e 849a fc3d 19a2 fd3e
00000250: 4f0e a2be 993b acbe 4425 2abe 3615 86be
00000260: 101c c4be d426 b13c feab 923e a830 b1be
00000270: 5504 573d e4c9 8d3e 85da bdbd bc9b a9be

arith.constant1 f4 [32, 32]
-0.23794445 -0.1407088 -0.76072127 0.25405037 -0.09245458 0.48692253 -0.70677567 -0.30801484
-0.5746989 0.3393135 -0.5846107 -0.20223771 0.047519945 0.72775376 1.5628484 -0.42458725
-0.077877454 -0.21469271 0.3773729 -0.00011459342 -0.9260855 -0.11683692 -0.7145227 -0.30823708
-0.42245623 0.13177289 -0.15656736 0.11434981 0.3505936 -0.037778005 0.5283317 0.1213898
0.25149024 -0.5736275 -0.35742226 -0.41860497 -2.0411642 -1.891897 -1.0822606 -0.430135
-0.12495637 0.1170385 -0.39766306 -0.94784534 -1.6031207 -0.036864016 0.08761216 0.41763645
-0.39110586 0.28141874 -0.31016135 -0.45326412 0.07630957 -0.38243327 -0.69045115 -0.12415045
-0.20786498 -0.6751002 -1.4668264 -0.309591 0.51151305 0.42476192 1.2277633 0.41189465
-0.21891713 0.2769143 0.042701896 0.5770889 -0.5339364 -0.2862593 -0.17155537 -0.23576526
0.32289404 0.037010062 0.04785416 -0.280496 0.14968012 0.1687248 -0.6738278 -0.55881584
-0.3160593 -1.5583336 0.76998633 0.41962636 -0.19296293 0.19516626 0.39296043 0.33359212
-0.048997656 -0.46577013 0.35788015 0.62656015 -0.1584622 -0.42935088 0.26618454 0.4047946
-0.20454131 0.4251165 0.16538315 0.7084935 0.28437588 0.16568257 -0.1395401 0.6053344
-0.6985635 0.05423435 0.24023405 0.39771932 -0.41004735 0.12506136 -0.44501346 0.1268443
-0.1942757 -1.1286883 -0.32216793 -0.5340431 -0.17617752 -0.11860821 0.5095665 0.7832916
0.3125415 0.20748498 0.5172969 0.20319813 -0.34315127 0.423266 -0.33309174 -1.0542723
-0.085844554 -0.40293378 0.8080902 -0.44750744 -1.0498127 0.76893103 0.41743714 -0.0871375
-0.30015284 0.8310798 -0.18759473 0.42002544 0.42054656 0.3513469 0.3356512 -0.23946306
-0.770946 0.509356 -0.038700555 -0.8061275 0.08705604 -0.25489327 -0.7243635 0.50997585
-0.15931167 -0.6898515 0.050361305 0.055065107 -0.18861881 -0.7293159 -0.27114695 0.22733633
-0.121226415 0.06422139 1.0605712 -1.3487502 -0.47389555 0.2627873 -0.8491758 0.46359238
-0.11857361 0.34117687 0.07026249 -0.53128064 0.482631 -0.33747566 -0.30763352 0.02825152
-0.54925877 -0.08018445 0.58268976 -0.036724046 -0.35650757 0.22007595 0.27958155 -0.6686966
-0.9068438 -0.77033573 -0.26382136 0.20174894 0.26303315 -0.63718224 0.59988236 -0.05929787
0.21629302 -0.35356376 0.2301655 0.40439007 0.15836729 0.11775253 -0.7277692 -0.31246215
0.58007634 0.015831374 -0.26419738 0.4474249 -0.37667766 0.5103147 -1.1782154 -0.027101373
-0.3215867 0.820793 -0.31731296 0.098337255 -0.77940905 0.48740882 -0.48205978 -0.59717906
-1.2927995 -0.54414827 -0.264207 -0.32925633 -0.11789814 -0.4871713 0.78931063 -0.5043691
-0.06772825 0.08580524 -0.47197115 0.23762237 -0.038519174 -0.7041345 -0.15913476 -0.23932749
0.22263683 0.49457332 0.11959808 -1.4116074 -0.45687014 0.31859708 0.48186272 -0.08992118
-0.5672781 -0.12968618 0.15859517 0.18619335 -0.12017759 0.5497407 0.474429 0.61217296
0.13825902 0.15920149 0.07297747 -0.3990829 -0.58048195 0.741058 -1.9261748 0.5566536
00000000: b6a7 73be f815 10be a1be 42bf e412 823e
00000010: d458 bdbd e94d f93e 40ef 34bf 1fb4 9dbe
00000020: 781f 13bf 80ba ad3e 0ca9 15bf 6717 4fbe
00000030: 46a4 423d 124e 3a3f 6b0b c83f 8063 d9be
00000040: 377e 9fbd 68d8 5bbe 0537 c13e e051 f0b8
00000050: f013 6dbf 3248 efbd f6ea 36bf 40d1 9dbe
00000060: 2f4c d8be 79ef 063e 3253 20be 3c30 ea3d
00000070: 0181 b33e 1cbd 1abd bf40 073f 379b f83d
00000080: 54c3 803e 40d9 12bf 0d00 b7be 6453 d6be
00000090: 6fa2 02c0 ae29 f2bf 8487 8abf a83a dcbe
000000a0: 20e9 ffbd e2b1 ef3d 7e9a cbbe fea5 72bf
000000b0: 0f33 cdbf b9fe 16bd 016e b33d 72d4 d53e
000000c0: 073f c8be 1e16 903e 78cd 9ebe 3c12 e8be
000000d0: 3148 9c3d 4bce c3be 68c1 30bf 9742 febd
000000e0: 8fda 54be 5ed3 2cbf f8c0 bbbf b682 9ebe
000000f0: 85f2 023f 657a d93e 5927 9d3f dbe3 d23e
00000100: d02b 60be b6c7 8d3e 2fe8 2e3d 19bc 133f
00000110: 0eb0 08bf 9490 92be 36ac 2fbe 736c 71be
00000120: 5e52 a53e dd97 173d b902 443d 2c9d 8fbe
00000130: bf45 193e 32c6 2c3e fb7f 2cbf 8e0e 0fbf
00000140: 86d2 a1be 7a77 c7bf d31d 453f 44d9 d63e
00000150: 1398 45be aad9 473e 1c32 c93e 96cc aa3e
00000160: c4b1 48bd 6c79 eebe 113c b73e 3f66 203f
00000170: ea43 22be e1d3 dbbe 5749 883e 3d41 cf3e
00000180: 4773 51be dfa8 d93e 335a 293e d45f 353f
00000190: b799 913e b1a8 293e 9ae3 0ebe 32f7 1a3f
000001a0: 0fd5 32bf d624 5e3d eaff 753e dea1 cb3e
000001b0: baf1 d1be 1610 003e ced8 e3be 79e3 013e
000001c0: 36f0 46be dc78 90bf 32f3 a4be 0cb7 08bf
000001d0: e167 34be dce8 f2bd f372 023f cc85 483f
000001e0: 7105 a03e f176 543e 926d 043f 2c13 503e
000001f0: 86b1 afbe 52b6 d83e 008b aabe 65f2 86bf
00000200: 45cf afbd 564d cebe 00df 4e3f b21f e5be
00000210: 4360 86bf aad8 443f 52ba d53e 2575 b2bd
00000220: a2ad 99be a5c1 543f d518 40be 930d d73e
00000230: e151 d73e bee3 b33e 79da ab3e ce35 75be
00000240: b85c 45bf 2865 023f 7984 1ebd 5f5e 4ebf
00000250: 704a b23d 5f81 82be e36f 39bf c78d 023f
00000260: 9922 23be 1c9a 30bf a847 4e3d f38b 613d
00000270: 4a25 41be 72b4 3abf c6d3 8abe dbca 683e
00000280: 8e45 f8bd 8186 833d ccc0 873f d9a3 acbf
00000290: 70a2 f2be 0f8c 863e 9663 59bf fb5b ed3e
000002a0: b9d6 f2bd bcae ae3e c8e5 8f3d 0202 08bf
000002b0: 691b f73e 9cc9 acbe 2482 9dbe bb6f e73c
000002c0: 399c 0cbf bf37 a4bd 282b 153f f46b 16bd
000002d0: 2988 b6be 975b 613e 5025 8f3e b32f 2bbf
000002e0: ea26 68bf b934 45bf 9813 87be 4697 4e3e
000002f0: 48ac 863e 601e 23bf e491 193f 53e2 72bd
00000300: eb7b 5d3e 4f06 b5be 81b0 6b3e 370c cf3e
00000310: 092b 223e 3d28 f13d 154f 3abf 0afb 9fbe
00000320: e27f 143f ccb0 813c e144 87be e014 e53e
00000330: e5db c0be fca3 023f c3cf 96bf b303 debc
00000340: 03a7 a4be 7d1f 523f d876 a2be 0b65 c93d
00000350: 5a87 47bf a68d f93e 8ad0 f6be bae0 18bf
00000360: 747a a5bf 4d4d 0bbf 2446 87be 4994 a8be
00000370: 9474 f1bd 846e f9be 4310 4a3f 551e 01bf
00000380: 1cb5 8abd a8ba af3d 34a6 f1be 4753 733e
00000390: 48c6 1dbd 2942 34bf 39f4 22be 4412 75be
000003a0: e9fa 633e b738 fd3e d7ef f43d 8daf b4bf
000003b0: e2ea e9be 281f a33e b6b6 f63e 9828 b8bd
000003c0: 2339 11bf 74cc 04be c666 223e 78a9 3e3e
000003d0: ab1f f6bd cebb 0c3f 5ce8 f23e 5eb7 1c3f
000003e0: c693 0d3e b705 233e 3675 953d 9854 ccbe
000003f0: 779a 14bf fab5 3d3f e58c f6bf da80 0e3f

arith.constant2 f4 [32, 64]
-0.24832346 -0.24760087 -0.12990186 -0.006974934 0.05676863 -0.14508033 -0.17787735 0.14160503
-0.16310628 -0.06934647 -0.31296378 -0.20441604 -0.04004397 0.00038051952 -0.25280184 -0.009357052
-0.20986566 -0.020720981 -0.047677353 -0.28438693 -0.08623682 -0.105388656 -0.14427763 -0.22277248
0.087214306 0.05124282 -0.16695939 -0.22255856 0.075955965 0.0914288 0.0155708045 0.07618042
-0.20560598 0.0069436333 -0.23929596 0.057806723 -0.24840385 -0.30183768 -0.30309877 -0.13755901
0.061791774 0.09087787 -0.16762055 -0.30845353 0.005343681 0.060384963 0.014452342 -0.002554975
-0.20316768 -0.08367291 -0.11848825 -0.12168238 -0.051642522 -0.16330284 -0.29027328 0.057264097
-0.20929056 -0.2934572 -0.21094537 -0.2415491 -0.24152607 0.054268576 -0.296021 0.06973366
0.05295322 0.47892207 0.39582643 -0.14519304 -0.75970745 -0.051259335 -1.3330365 1.2128005
-0.37820715 -0.054362647 -0.23835942 -0.33024493 0.18949597 -0.43908584 -0.027317062 0.015672866
0.82260925 0.125971 -0.7622447 -0.25101307 0.03424556 -0.19887874 -1.0645859 0.28574234
-0.79021794 -1.7711215 -0.12378403 1.0374457 -0.31093654 0.4373927 0.03203449 -0.1493764
-0.67652225 0.07597601 0.046521377 0.056457635 -0.61127263 0.04016165 -0.298385 -0.20448688
0.30757016 0.695201 0.47003207 -0.12697491 -0.41925034 0.18209644 0.7025406 -0.23243104
-1.3699563 0.40738797 -0.33804914 -1.9018285 0.12918273 0.113333434 0.03540706 0.41691363
-0.20598567 0.27723882 -0.49190572 -0.91918314 0.30543086 0.7482156 0.26202106 -0.03442637
-0.35969794 -0.29839715 -0.40550968 0.835772 -0.290045 0.104339674 -0.027782599 -0.35115466
-0.037520654 0.16488802 -0.029153174 0.40557626 0.53687906 0.13880204 0.8936144 -0.38210732
-0.9945697 -0.091720074 -0.1600659 0.35667112 0.6212513 0.39076343 -0.21199976 -0.2013688
0.20270777 -0.2976445 -0.53938025 0.43165466 -0.4870908 -0.1928986 -0.9305097 0.45093083
0.21688323 0.2781105 0.68034816 0.4931529 -0.47777334 0.228736 0.25829238 0.5389643
-0.9123799 -1.2287529 0.37901673 -0.39925474 0.75893307 -0.32871875 -0.13610765 0.5577037
-0.9486795 -0.5222497 0.5593777 -0.8710904 0.7868723 0.53641015 -0.7209231 -0.11435149
-0.02872854 -0.41952646 -0.630056 0.90134376 -0.030137105 -0.38648358 0.2105341 -0.60098696
-0.6760158 0.07506012 -0.068484224 0.2535242 -0.46270904 -0.092536405 0.53302604 -0.26915425
1.0452589 -0.45981103 -0.35065693 -0.51550937 -0.8674511 0.16628608 0.45580053 0.1149496
-0.027609052 0.07528647 -0.32505307 -0.7094185 -0.4614676 -0.08102574 0.4780052 0.38145393
-0.49272627 -0.252075 -0.9203881 0.63441485 0.5081729 0.35445002 -0.26757452 -0.3877046
-0.5177776 -1.072857 -1.4622133 -0.3078033 0.3992327 0.001062873 0.1579519 0.029930077
-0.21621032 -0.9098892 0.6484106 1.0976702 -0.42613968 0.4515972 0.44617134 0.5966024
-0.6342816 0.33861282 0.122541174 -0.63783914 0.35698986 0.25813982 -0.44249693 0.78211254
-0.76388603 0.4246438 -0.27141374 0.66164714 0.18608841 -0.020281315 0.41215798 0.28501815
00000000: 8148 7ebe 158b 7dbe fe04 05be fd8d e4bb
00000010: 3986 683d f08f 14be 7b25 36be e900 113e
00000020: 5505 27be 8605 8ebd ca3c a0be 7052 51be
00000030: 2505 24bd 7780 c739 3e6f 81be 524e 19bc
00000040: 06e7 56be 0cbf a9bc 5449 43bd 2a9b 91be
00000050: ee9c b0bd 02d6 d7bd 84bd 13be 781e 64be
00000060: 6a9d b23d fee3 513d 67f7 2abe 64e6 63be
00000070: cd8e 9b3d 063f bb3d b01c 7f3c 7b04 9c3d
00000080: 608a 52be 6b87 e33b 000a 75be bec6 6c3d
00000090: 945d 7ebe 788a 9abe c32f 9bbe 45dc 0cbe
000000a0: 5f19 7d3d 2d1e ba3d b9a4 2bbe 9fed 9dbe
000000b0: 0c1a af3b 3956 773d 84c9 6c3c 5e71 27bb
000000c0: 300b 50be b45c abbd f8a9 f2bd 9d34 f9bd
000000d0: 1c87 53bd dc38 27be b39e 94be c28d 6a3d
000000e0: 4450 56be 0640 96be 1002 58be a658 77be
000000f0: 9c52 77be ba48 5e3d 1190 97be 85d0 8e3d
00000100: 7ae5 583d 4635 f53e c3a9 ca3e 7cad 14be
00000110: 307c 42bf 4ff5 51bd f1a0 aabf 0c3d 9b3f
00000120: 5ea4 c1be 5eab 5ebd 7e14 74be dd15 a9be
00000130: 3b0b 423e dccf e0be 08c8 dfbc 6264 803c
00000140: 8596 523f 8bfe 003e 7822 43bf c984 80be
00000150: 1345 0c3d dea6 4bbe 5a44 88bf d24c 923e
00000160: b94b 4abf 1cb4 e2bf 7b82 fdbd 05cb 843f
00000170: 1333 9fbe f0f1 df3e 9936 033d 21f6 18be
00000180: 9030 2dbf 4f99 9b3d 338d 3e3d 1f40 673d
00000190: 5d7c 1cbf 8b80 243d ebc5 98be 0265 51be
000001a0: d679 9d3e b1f8 313f 0ba8 f03e b605 02be
000001b0: fba7 d6be 7d77 3a3e b3d9 333f 6702 6ebe
000001c0: ba5a afbf 2895 d03e c714 adbe 1e6f f3bf
000001d0: 7a48 043e 5c1b e83d fe06 113d b475 d53e
000001e0: e8ed 52be 3ff2 8d3e 11db fbbe 964f 6bbf
000001f0: 6f61 9c3e 0f8b 3f3f a027 863e aa02 0dbd
00000200: 542a b8be 83c7 98be f79e cfbe 27f5 553f
00000210: c780 94be 0ab0 d53d 5598 e3bc 8bca b3be
00000220: 42af 19bd 68d8 283e a3d2 eebc b1a7 cf3e
00000230: e870 093f 1f22 0e3e eac3 643f 92a3 c3be
00000240: 1f9c 7ebf bcd7 bbbd 51e8 23be 999d b63e
00000250: 530a 1f3f 2512 c83e 7716 59be 9f33 4ebe
00000260: a092 4f3e dc64 98be d314 0abf d701 dd3e
00000270: f763 f9be 3687 45be e235 6ebf 68e0 e63e
00000280: a316 5e3e 8064 8e3e 4c2b 2e3f 897e fc3e
00000290: b59e f4be c539 6a3e e63e 843e 90f9 093f
000002a0: bb91 69bf c647 9dbf 7b0e c23e 1e6b ccbe
000002b0: 7049 423f d34d a8be ce5f 0bbe abc5 0e3f
000002c0: a9dc 72bf 28b2 05bf 6033 0f3f c8ff 5ebf
000002d0: 7770 493f 2d52 093f 6b8e 38bf 1d31 eabd
000002e0: 1d58 ebbc 2ccc d6be 5a4b 21bf 77be 663f
000002f0: 17e2 f6bc 2de1 c5be 4096 573e 48da 19bf
00000300: 5f0f 2dbf 1fb9 993d 7541 8cbd edcd 813e
00000310: 33e8 ecbe ba83 bdbd 6574 083f 96ce 89be
00000320: 0bcb 853f 5a6c ebbe 4e89 b3be 6cf8 03bf
00000330: 4611 5ebf e646 2a3e b05e e93e b26a eb3d
00000340: 612c e2bc cb2f 9a3d 5b6d a6be 739c 35bf
00000350: 7b45 ecbe d3f0 a5bd 19bd f43e ee4d c33e
00000360: 9e46 fcbe f90f 81be 8e9e 6bbf 0369 223f
00000370: 9f17 023f 797a b53e 87ff 88be 3881 c6be
00000380: 138d 04bf 6153 89bf ce29 bbbf 6598 9dbe
00000390: 3a68 cc3e 1a50 8b3a 25be 213e ec2f f53c
000003a0: 3d66 5dbe 80ee 68bf 3dfe 253f 7580 8c3f
000003b0: fb2e dabe c037 e73e 9270 e43e efba 183f
000003c0: 4760 22bf a95e ad3e def6 fa3d 6d49 23bf
000003d0: 60c7 b63e e72a 843e f58e e2be 8738 483f
000003e0: 098e 43bf ea6a d93e bef6 8abe b561 293f
000003f0: f68d 3e3e 0025 a6bc 5f06 d33e e6ed 913e

functional_1/dense_1_2/BiasAdd/ReadVariableOp f4 [32]
-0.14137508 0.22680803 -0.51003385 0.06255803 -0.075452246 -0.07376056 -0.23759586 0.5244687
0.84567523 0.769171 -0.43738192 -0.7835735 -0.16378918 -0.31388295 -0.0016130934 0.270188
0.92776746 0.8555832 0.29195413 -1.0789304 -0.44361675 0.9826868 -0.028828993 -0.5234519
-0.38942966 1.0326202 0.34168464 -0.47600657 0.5522392 0.215579 0.054747183 0.026005013
00000000: a1c4 10be 5d40 683e 9491 02bf 6d1e 803d
00000010: b586 9abd c70f 97bd 544c 73be 9543 063f
00000020: 2c7e 583f 64e8 443f 86f0 dfbe 4698 48bf
00000030: 5ab8 27be 44b5 a0be 6f6e d3ba 1556 8a3e
00000040: 2b82 6d3f 8007 5b3f 037b 953e 641a 8abf
00000050: bc21 e3be 5d91 7b3f c82a ecbc f200 06bf
00000060: 5363 c7be e62c 843f 4af1 ae3e 22b7 f3be
00000070: 8c5f 0d3f bec0 5c3e 953e 603d 7708 d53c

functional_1/dense_1/BiasAdd/ReadVariableOp f4 [64]
-0.32568777 -0.5714217 -1.0837948 -0.84579325 -0.926734 0.266161 -0.6105751 -0.45335668
-0.12765685 -0.19138855 -0.42879972 -0.604738 -0.11589211 0.117998354 -0.42587203 -0.30561832
-1.2380689 -0.6166849 -0.23231232 -1.2119628 -0.63141406 0.044682126 -0.58586645 0.08863701
-0.0970959 -0.66333073 0.063928954 -1.178596 -0.78084016 -0.78445274 0.18391135 -0.20425645
-0.34900314 -0.3932001 -0.6112824 -1.6146811 -0.5549401 -0.27169383 -1.1572841 -0.5890589
-0.41436368 -0.9605104 -0.2862222 -1.181484 0.032058526 -0.14204723 -0.8105978 -0.46125004
-1.5877525 -1.2849263 -0.7486878 -0.8825795 -0.62024057 -0.96187913 -0.39540792 -0.29540542
-1.7948302 -0.10146932 -0.54828674 -1.6781654 -0.15968819 -0.69313306 -0.86845195 -0.4742085
00000000: 8cc0 a6be b148 12bf cab9 8abf e885 58bf
00000010: 703e 6dbf 4146 883e a64e 1cbf 5e1e e8be
00000020: 7ab8 02be 5cfb 43be a38b dbbe 1cd0 1abf
00000030: d858 edbd 1fa9 f13d e60b dabe 017a 9cbe
00000040: 0b79 9ebf 10df 1dbf 48e3 6dbe 9921 9bbf
00000050: 5aa4 21bf 9b04 373d 58fb 15bf 5287 b53d
00000060: 37da c6bd 0bd0 29bf 2fed 823d 3cdc 96bf
00000070: 24e5 47bf e5d1 48bf 4253 3c3e 9a28 51be
00000080: 8ab0 b2be 8651 c9be 017d 1cbf dfad cebf
00000090: 8e10 0ebf 741b 8bbe e321 94bf 90cc 16bf
000000a0: 7a27 d4be 02e4 75bf b78b 92be de3a 97bf
000000b0: cd4f 033d d474 11be 5683 4fbf f728 ecbe
000000c0: 793b cbbf 7778 a4bf 01aa 3fbf bbf0 61bf
000000d0: 16c8 1ebf b63d 76bf e872 cabe 613f 97be
000000e0: ffbc e5bf 26cf cfbd 855c 0cbf 20ce d6bf
000000f0: 4d85 23be 2b71 31bf de52 5ebf 75cb f2be

functional_1/dense_2_1/BiasAdd/ReadVariableOp f4 [32]
0.70095336 0.67898726 -0.38616085 0.48968574 -0.06661449 -0.8534735 0.4352372 -1.5252563
0.7311423 0.70588034 0.31343347 -0.39794 0.9501397 -0.18967804 -0.16398336 -0.022656264
0.42134014 0.16754664 -0.42529488 -0.6669215 -0.39394206 0.6449746 0.09942627 -0.22627124
-0.5350553 0.9444197 -0.6554215 0.2622538 -0.36635917 0.57984513 0.5368344 -0.34644508
00000000: ae71 333f 1cd2 2d3f e0b6 c5be 17b8 fa3e
00000010: 2d6d 88bd 3d7d 5abf 69d7 de3e 993b c3bf
00000020: 242c 3b3f 93b4 343f 5a7a a03e cbbe cbbe
00000030: 5b3c 733f f63a 42be 41eb 27be a199 b9bc
00000040: e5b9 d73e 5991 2b3e 40c0 d9be 5ebb 2abf
00000050: c6b2 c9be 0e1d 253f 00a0 cb3d a6b3 67be
00000060: 62f9 08bf 7dc5 713f b4c9 27bf 2146 863e
00000070: 6e93 bbbe bb70 143f fb6d 093f 4061 b1be

functional_1/dense_3_1/BiasAdd/ReadVariableOp f4 [5]
-0.024903188 -0.08544217 0.0028684859 -0.218167 0.18093614
00000000: c501 ccbc 4efc aebd 35fd 3b3b 2c67 5fbe
00000010: 5347 393e

functional_1/dense_1/MatMul f4 [64, 52]
0.5692902 0.57555234 -0.67235947 0.33395684 -0.5236996 -0.16087766 -0.009738886 -0.13489537
-1.5056899 -1.5879053 -0.3526144 -0.042202678 -0.020839483 0.3769615 0.0931751 -0.3447032
-0.6046478 -0.44686595 -0.03265701 0.0020513244 1.2574261 0.31699726 0.074149854 0.28130186
-0.04547404 -0.035531797 -0.13941403 -0.2774511 -0.35914537 -0.89566463 -0.28377333 0.09762004
-0.018579101 0.5373815 -0.14631307 -0.06101762 0.014791878 0.026127012 -0.016353462 -1.5724713
-1.3827213 -0.5246467 -0.21776837 -0.56835777 -0.119381115 0.016321763 -0.08910392 -0.085247375
-0.26714432 1.9318404 0.17432134 0.1835638 0.2162137 0.02234712 0.4725086 0.87862885
0.09504675 -0.11003774 -0.012475204 -0.5623958 0.2495164 0.1746815 0.27040848 -0.023424799
0.02785436 -1.011464 -0.78305376 -0.2910747 0.11404827 -0.2317315 -0.021914516 0.028422374
0.8550005 0.9693621 0.7869052 1.4227159 0.11721538 -0.0048804446 -0.60576034 -0.6521292
0.015000271 -0.021709487 0.053688325 -0.016131 0.00056768785 0.14359967 -0.42254168 -0.8498586
-0.1313113 0.036547948 -0.03851694 0.09648993 0.14752662 -1.4547244 -0.50166744 -1.3271774
0.23372369 0.040283594 0.014211793 0.2602524 0.0755524 0.25093445 0.11915473 0.40730828
-0.16156736 -0.030449556 0.1768392 0.22088154 0.22566156 0.025003504 -0.0059806854 -0.37643135
0.36931577 0.44611138 -0.35979733 0.032695122 0.0804322 -2.6124816 -2.8163962 0.8082787
-1.9262819 0.90560997 -0.1020916 0.025968367 -1.674335 0.86308205 0.75765586 -1.0253284
0.08233872 -0.19502176 0.14164743 0.20588608 0.26145148 -0.43704525 0.19279326 -0.05505434
0.086113624 0.5416472 0.5629287 0.4441996 0.04106496 0.03232311 0.014263872 0.52643704
0.3874684 -0.034409948 0.7998119 -0.07283335 -0.022101248 0.0020203188 -1.6994517 -0.017354906
0.2557925 -0.62839746 -0.047206767 0.25226852 -1.5142833 -1.5871563 -0.22731549 -0.6725015
-0.18090352 -0.020629121 -0.119829796 -0.1824088 0.5401044 0.6055597 1.1796433 0.17922056
-0.1846431 0.4465259 0.35837084 0.12548117 0.35745317 0.546542 0.016880874 0.01943264
0.020857723 -1.0941354 -1.1055502 -0.8080857 -0.029914008 -0.04939152 -0.2508691 0.061058614
-0.83679944 0.005051817 -0.6830887 -0.23570208 -0.07080872 0.64423746 0.3120751 0.055784114
0.108019136 0.12834978 0.061033703 0.42010453 0.20279923 -0.7835386 -0.045400515 -0.912678
-0.1685288 0.059326675 0.63392013 -0.25847614 -0.20930049 0.3146008 -0.00019949739 -0.12458778
-0.979741 -1.2164209 -0.26765898 -0.36549678 -0.23119804 -0.016807877 0.019550787 -0.65335715
0.22816117 0.46322697 1.3017848 0.047151376 -0.052231174 -1.4916458 -1.7149427 0.31863767
-1.6379769 0.46539024 -0.06423994 -0.048748538 0.116973594 0.42156956 0.24939029 -0.45449647
0.17166601 0.5537836 -0.34908688 -0.31315872 -0.14473006 -0.14136794 -0.06197906 -0.12930605
0.041366994 1.1886352 -0.0951009 -0.40802887 0.5892868 0.2175379 0.059714027 -0.06233434
0.062027927 -0.2330453 0.3545301 -0.24497597 0.19825779 -0.0039079655 0.13368069 -0.018163504
00000000: 01bd 113f 6657 133f c01f 2cbf 64fc aa3e
00000010: 2d11 06bf 1dbd 24be d98f 1fbc 0322 0abe
00000020: 72ba c0bf 7b40 cbbf e089 b4be b7dc 2cbd
00000030: 90b7 aabc 1901 c13e 96d2 be3d f07c b0be
00000040: 33ca 1abf 9dcb e4be 5bc3 05bd 836f 063b
00000050: 57f3 a03f 774d a23e e1db 973d cc06 903e
00000060: fd42 3abd ca89 11bd 8dc2 0ebe 120e 8ebe
00000070: e7e1 b7be 474a 65bf bd4a 91be 04ed c73d
00000080: 3333 98bc d591 093f 18d3 15be 9ded 79bd
00000090: a259 723c 5108 d63c b2f7 85bc bd46 c9bf
000000a0: 03fd b0bf 3f4f 06bf acfe 5ebe e57f 11bf
000000b0: 167e f4bd 38b5 853c 1e7c b6bd 2d96 aebd
000000c0: 24c7 88be 8c46 f73f 4b81 323e 26f8 3b3e
000000d0: 2067 5d3e 4f11 b73c a6ec f13e d2ed 603f
000000e0: dfa7 c23d 775b e1bd cc64 4cbc 2cf9 0fbf
000000f0: 3a81 7f3e b5df 323e fb72 8a3e 5de5 bfbc
00000100: d42e e43c a777 81bf 3676 48bf be07 95be
00000110: 2492 e93d 064b 6dbe 1286 b3bc 0ad6 e83c
00000120: 50e1 5a3f 1d28 783f 9f72 493f 8e1b b63f
00000130: 9e0e f03d 23ec 9fbb 1c13 1bbf f0f1 26bf
00000140: b2c3 753c 18d8 b1bc 4ae8 5b3d 2925 84bc
00000150: e3d0 143a cb0b 133e 6257 d8be 5590 59bf
00000160: 7876 06be 4db3 153d f0c3 1dbd 839c c53d
00000170: 3811 173e 6934 babf 476d 00bf f3e0 a9bf
00000180: 4355 6f3e 6900 253d 95d8 683c cd3f 853e
00000190: 37bb 9a3d 7b7a 803e 6507 f43d b68a d03e
000001a0: ea71 25be 5971 f9bc 5615 353e c52e 623e
000001b0: d313 673e 26d4 cc3c a0f9 c3bb 9cbb c0be
000001c0: f516 bd3e b668 e43e 5b37 b8be 52eb 053d
000001d0: a3b9 a43d e632 27c0 d63f 34c0 5aeb 4e3f
000001e0: 6890 f6bf 0ed6 673f 6715 d1bd 9dbb d43c
000001f0: 9c50 d6bf f2f2 5c3f bcf5 413f f63d 83bf
00000200: 34a1 a83d c9b3 47be 060c 113e cdd3 523e
00000210: f8dc 853e 65c4 dfbe 996b 453e a980 61bd
00000220: 575c b03d 64a9 0a3f 181c 103f 216e e33e
00000230: bb33 283d 3d65 043d 04b3 693c 94c4 063f
00000240: 4262 c63e 72f1 0cbd 79c0 4c3f a729 95bd
00000250: ad0d b5bc 5367 043b a287 d9bf e02b 8ebc
00000260: 3cf7 823e a8de 20bf e25b 41bd 5729 813e
00000270: 09d4 c1bf f027 cbbf 64c5 68be 0f29 2cbf
00000280: c63e 39be 67fe a8bc 5369 f5bd 5fc9 3abe
00000290: 4844 0a3f f605 1b3f 8dfe 963f 9885 373e
000002a0: 1513 3dbe 0b9f e43e 627c b73e 237e 003e
000002b0: 1a04 b73e 2dea 0b3f c249 8a3c 3331 9f3c
000002c0: d1dd aa3c a10c 8cbf ab82 8dbf b4de 4ebf
000002d0: 390e f5bc c34e 4abd ea71 80be 9918 7a3d
000002e0: 7d38 56bf b689 a53b e7de 2ebf e35b 71be
000002f0: 2a04 91bd bfec 243f 4fc8 9f3e e27d 643d
00000300: 2339 dd3d 206e 033e 7afe 793d f117 d73e
00000310: 9aaa 4f3e fc95 48bf e4f5 39bd 44a5 69bf
00000320: d092 2cbe 8700 733d 9748 223f fc56 84be
00000330: de52 56be 5b13 a13e 2c30 51b9 e127 ffbd
00000340: 4ed0 7abf aeb3 9bbf 990a 89be 6522 bbbe
00000350: 2ebf 6cbe acb0 89bc f928 a03c 6a42 27bf
00000360: 15a3 693e 162c ed3e e2a0 a63f cd21 413d
00000370: 5bf0 55bd 40ee bebf 3e83 dbbf 7a24 a33e
00000380: 3aa9 d1bf a147 ee3e 3b90 83bd 8cac 47bd
00000390: da8f ef3d f7d7 d73e 2b60 7f3e c3b3 e8be
000003a0: 37c9 2f3e c3c4 0d3f 84bb b2be 5756 a0be
000003b0: 1e34 14be c2c2 10be c1dd 7dbd ce68 04be
000003c0: 7070 293d 3325 983f 43c4 c2bd 29e9 d0be
000003d0: 80db 163f 41c2 5e3e b296 743d 4b52 7fbd
000003e0: ff10 7e3d 6da3 6ebe f884 b53e fbda 7abe
000003f0: 1704 4b3e 640e 80bb 97e3 083e a1cb 94bc
